DeepLearning/neural-network-from-scratch/iris_solution.pt (torch, 5252 bytes, 6 tensors)

weight f4 [4, 16]
0.1939019 0.32588524 -0.30748546 -0.30683568 -0.49062157 -0.051589806 -0.25577712 -0.056171197
0.13854042 0.38644624 0.11820025 0.4434501 -0.34596226 0.07026076 -0.07595588 -0.5190942
0.30680308 0.2872502 0.072552174 -0.2519688 0.3058673 0.401297 -0.24104021 0.75125825
-0.3046203 -0.04240529 0.30193985 -0.041144386 -0.7253809 -0.20465823 0.25034907 1.1498806
-0.9410027 -0.21747836 -1.026937 -0.56679004 -0.61110955 0.5615767 0.89352536 -0.2920516
0.29606962 -0.6121801 0.6519396 -0.8233266 -0.022445422 0.19674022 -0.1554129 -0.38799497
-0.9415582 0.15022816 -0.6643067 0.42969182 0.14879583 0.2875749 1.0523168 -0.7733146
0.2846312 -0.95214355 0.40665525 -0.6184189 0.47712514 0.77493304 -0.98938155 -0.7498969
00000000: 388e 463e 6eda a63e bc6e 9dbe 9119 9dbe
00000010: c032 fbbe d54f 53bd 38f5 82be c513 66bd
00000020: 8add 0d3e 48dc c53e f912 f23d e40b e33e
00000030: f721 b1be e0e4 8f3d c28e 9bbd 5ce3 04bf
00000040: 4b15 9d3e 7512 933e 3c96 943d 0e02 81be
00000050: a49a 9c3e cd76 cd3e 3fd3 76be 7652 403f
00000060: 31f7 9bbe 2bb1 2dbd dc97 9a3e 0487 28bd
00000070: 90b2 39bf ed91 51be c12d 803e 4a2f 933f
00000080: 8ee5 70bf a6b2 5ebe ac72 83bf 2719 11bf
00000090: ad71 1cbf 7ec3 0f3f 14be 643f ca87 95be
000000a0: 7096 973e d6b7 1cbf 83e5 263f 88c5 52bf
000000b0: 76df b7bc 4576 493e 8f24 1fbe 47a7 c6be
000000c0: f509 71bf 69d5 193e 0110 2abf 9100 dc3e
000000d0: ef5d 183e 043d 933e 51b2 863f f2f7 45bf
000000e0: 2ebb 913e aebf 73bf 1e35 d03e b350 1ebf
000000f0: bf49 f43e 0362 463f 1c48 7dbf 3ef9 3fbf

bias f4 [16]
1.0833616 -0.21165796 1.4434959 0.065112226 -0.6726965 -0.09948422 -1.0513184 -0.29307467
0.3505149 0.5296606 -0.51891655 0.2975887 0.7412751 -0.43896174 0.7043277 0.47452343
00000000: 98ab 8a3f ddbc 58be 79c4 b83f 8f59 853d
00000010: d635 2cbf 62be cbbd 9a91 86bf e20d 96be
00000020: b076 b33e d697 073f b7d7 04bf 8c5d 983e
00000030: 34c4 3d3f 98bf e0be d24e 343f bcf4 f23e

weight f4 [16, 12]
0.06954607 -0.48922598 -0.050542902 -0.17782636 0.914454 0.13949843 -0.9582402 -0.5336872
0.48706648 0.5478982 0.14470024 0.5091258 -0.19500439 -0.39568472 -0.0077610435 -0.34900236
-0.3036809 0.4546115 0.079924315 -0.5602899 0.34027913 0.10106122 -0.20607391 -0.11618305
0.39423668 -0.5697727 0.1256925 0.068635 0.58260053 -0.075753525 -0.60648996 -0.32884505
0.18783662 0.089144796 -0.42430475 -0.1900864 0.42893413 0.23501182 -0.18416157 -0.15044323
-0.43239278 0.07191159 -0.08938449 -0.34933066 -0.052594747 0.02154817 -0.19627488 0.30300525
-0.5028187 0.36135718 0.19848941 -0.54554397 -0.068131834 0.093554996 0.117231205 0.032225695
0.64199656 0.32920006 -0.550495 0.50754476 -0.5860736 -0.019577054 -0.14170152 -0.07311303
-0.3712709 -0.16315235 0.05066275 0.28239787 -0.43050733 0.025583379 0.39213192 0.00205705
0.0727874 0.44494593 0.1426466 0.5703721 -0.2645336 0.66709465 1.172549 0.37196475
-0.6891641 -0.34901452 0.5256466 -0.06533335 -0.15957256 -0.44722182 -0.5712571 -0.43020555
-0.1131827 0.21611536 -0.01811862 -0.4720963 0.5083827 -0.071760565 -0.33754876 0.085748054
-0.11829608 0.009150604 -0.32351214 -0.2778671 -0.16630101 0.07871461 -0.0078008077 0.2338925
-0.6869253 -0.2298357 0.6081376 -0.36815885 0.25905865 -0.19135438 -0.40440756 0.07423037
0.567402 -0.44814408 -0.30571043 -0.8244517 0.2780356 -0.06491364 0.22236829 0.06662964
-0.36220574 0.17131421 -0.065684095 -0.2908831 -0.011727633 0.3176026 0.21824384 0.052887294
0.11046962 0.16510572 -0.40413585 -0.29112318 -0.24405687 -0.10374196 -0.29636177 -0.23084389
0.4020734 0.026620127 -0.77134717 -0.49373883 0.052844368 0.38616487 -0.37346524 0.45991012
0.11661101 -0.13721304 0.07861829 -0.22360109 0.39293942 -0.19949454 -0.042203266 -0.1281422
-0.42105252 -0.38172007 0.44785196 -0.50656873 -0.32064778 0.5497115 0.251937 -0.02421352
-0.4263829 0.36053723 0.06128882 -0.117441565 -0.03358802 -0.13016315 0.06308001 0.27440822
0.38732776 0.14129862 0.25810945 -0.38716012 0.44284377 -0.64200604 -0.4634786 0.084813036
0.09448649 0.29092935 -0.16719942 0.0032743262 0.43428704 -0.6918076 0.1743734 -0.43048882
0.1487481 -0.18387416 -0.7344588 0.062391985 0.3304628 0.10467495 -0.43851754 0.11355626
00000000: 2c6e 8e3d d47b fabe 1306 4fbd 1d18 36be
00000010: a819 6a3f add8 0e3e 3b4f 75bf b99f 08bf
00000020: c760 f93e 0e43 0c3f 4d2c 143e 1256 023f
00000030: 3baf 47be 3097 cabe 5a50 febb 70b0 b2be
00000040: 107c 9bbe d7c2 e83e 5caf a33d 296f 0fbf
00000050: 1139 ae3e 2ff9 ce3d 0a05 53be 61f1 edbd
00000060: 64d9 c93e a0dc 11bf 89b5 003e 8290 8c3d
00000070: 4f25 153f aa24 9bbd ed42 1bbf 615e a8be
00000080: 3e58 403e 8c91 b63d 793e d9be 02a6 42be
00000090: 419d db3e f0a6 703e da94 3cbe ca0d 1abe
000000a0: 9662 ddbe 6246 933d 370f b7bd 78db b2be
000000b0: 976d 57bd ca85 b03c 48fc 48be 8123 9b3e
000000c0: bab8 00bf cf03 b93e cf40 4b3e c5a8 0bbf
000000d0: b488 8bbd c399 bf3d ea16 f03d 17ff 033d
000000e0: e359 243f e98c a83e 3eed 0cbf 74ee 013f
000000f0: eb08 16bf 0f60 a0bc 341a 11be 49bc 95bd
00000100: 3817 bebe 6911 27be be83 4f3d 7496 903e
00000110: 756b dcbe 3c94 d13c 84c5 c83e 92cf 063b
00000120: 8f11 953d f4cf e33e f311 123e e803 123f
00000130: f370 87be b7c6 2a3f 1616 963f 2a72 be3e
00000140: 0f6d 30bf 08b2 b2be c790 063f 7ecd 85bd
00000150: fd66 23be 42fa e4be e83d 12bf e743 dcbe
00000160: 55cc e7bd 584d 5d3e 806d 94bc 9bb6 f1be
00000170: 5e25 023f 34f7 92bd 31d3 acbe ad9c af3d
00000180: 3745 f2bd 6aec 153c 62a3 a5be 9944 8ebe
00000190: d04a 2abe 2035 a13d eb9d ffbb 8481 6f3e
000001a0: 56da 2fbf 0d5a 6bbe e8ae 1b3f 517f bcbe
000001b0: 56a3 843e 67f2 43be 820e cfbe 1806 983d
000001c0: 4241 113f 2473 e5be 1486 9cbe 440f 53bf
000001d0: af5a 8e3e 71f1 84bd 83b4 633e 1f75 883d
000001e0: 0873 b9be fe6c 2f3e 6285 86bd a1ee 94be
000001f0: 4225 40bc cf9c a23e 507b 5f3e 59a0 583d
00000200: e53d e23d 7911 293e e5ea cebe 190e 95be
00000210: 0bea 79be aa76 d4bd bbbc 97be 5762 6cbe
00000220: 91dc cd3e 7412 da3c 0277 45bf 56cb fcbe
00000230: 5673 583d 67b7 c53e d636 bfbe 5779 eb3e
00000240: c1d1 ee3d 9381 0cbe a002 a13d aff7 64be
00000250: 5b2f c93e 4c48 4cbe 55dd 2cbd b537 03be
00000260: 3294 d7be d070 c3be da4c e53e 7dae 01bf
00000270: f22b a4be e5b9 0c3f e3fd 803e 6f5b c6bc
00000280: dc4e dabe 5698 b83e fc09 7b3d 3485 f0bd
00000290: 9793 09bd 7d49 05be 1830 813d 3c7f 8c3e
000002a0: d34f c63e 96b0 103e ec26 843e da39 c6be
000002b0: 6bbc e23e 825a 24bf 114d edbe 75b2 ad3d
000002c0: 2282 c13d b1f4 943e 5336 2bbe 1496 563b
000002d0: df5a de3e 4e1a 31bf f18e 323e 0869 dcbe
000002e0: 6c51 183e 8249 3cbe 7e05 3cbf bd8e 7f3d
000002f0: 6c32 a93e d25f d63d 5f85 e0be 2f90 e83d

bias f4 [12]
0.4961955 -0.50134605 0.06493779 -0.14144878 0.60276407 -0.34228766 -1.0007589 -0.31595767
-0.45378527 -0.32601738 0.3907911 -0.2877481
00000000: 560d fe3e 3758 00bf 1bfe 843d f3d7 10be
00000010: bf4e 1a3f 5440 afbe de18 80bf 34c5 a1be
00000020: 8b56 e8be c0eb a6be c515 c83e b853 93be

weight f4 [12, 3]
-0.0728126 0.321754 -0.88057625 -0.354375 -0.74092185 0.6813419 0.10334662 0.48892754
0.43555164 -0.9154812 0.014274937 0.7043 0.35170937 0.8084674 -0.7757636 0.35338205
-0.9776106 -0.11854875 -0.9113541 -1.068478 1.6232204 -1.5701342 -0.032052148 1.3070073
1.232194 -1.1340908 -0.99559456 1.5280097 0.015822548 -0.43567482 -1.3170825 0.79012364
0.3601587 0.84700865 -0.65463907 -0.38762382
00000000: c61e 95bd f1bc a43e 726d 61bf a470 b5be
00000010: 0ead 3dbf 6c6c 2e3f 65a7 d33d b654 fa3e
00000020: a000 df3e fa5c 6abf 6de1 693c 014d 343f
00000030: 4013 b43e b8f7 4e3f 7198 46bf 7eee b43e
00000040: b044 7abf b0c9 f2bd 814e 69bf e3c3 88bf
00000050: b0c5 cf3f 28fa c8bf 1d49 03bd 044c a73f
00000060: 88b8 9d3f e329 91bf 49df 7ebf d295 c33f
00000070: 4a9e 813c c510 dfbe 2996 a8bf 8b45 4a3f
00000080: b966 b83e 8fd5 583f 6d96 27bf a176 c6be

bias f4 [3]
0.024170397 0.3995787 -0.42374822
00000000: ff00 c63c 9495 cc3e 87f5 d8be
