DeepLearning/CS7150/HW1/xor_solution.pt (torch, 3256 bytes, 4 tensors)

weight f4 [2, 3]
0	0x3feed6d1	1.8659307
1	0x3f1af5be	0.6053122
2	0xc02776c6	-2.6166244
3	0xc0019b14	-2.0250902
4	0xbeb6347a	-0.3558691
5	0x402de885	2.7173169

bias f4 [3]
0	0xbf68360d	-0.90707475
1	0xbe060d3d	-0.13090988
2	0xbfb502d4	-1.4141488

weight f4 [3, 2]
0	0xbfa36b27	-1.2767075
1	0x4007e893	2.1235702
2	0xbeb7eb96	-0.35921925
3	0x3f0d4797	0.5518736
4	0xc00453d3	-2.0676162
5	0x3fc2b7b8	1.5212317

bias f4 [2]
0	0xbfb90c65	-1.4456908
1	0x3fb90c6a	1.4456913
